data.pth (torch, 4991 bytes, 6 tensors)

l1.weight f4 [8, 54]
000000 60 aa 1e 3f 9c fd f3 3e de 2f e0 be a9 fe 58 be
       0.6197872 0.47654426 -0.4378652 -0.21190895
000010 1d 35 7e be 87 e0 bc 3e c2 f0 32 3e 49 31 43 be
       -0.24824949 0.3689005 0.17474654 -0.1906177
000020 3b 71 14 3d 85 27 3e be 2e 3b 85 be f3 b6 39 be
       0.036240797 -0.18569763 -0.26021713 -0.18136196
000030 04 61 e1 3e 26 6f 13 bd d6 bf 88 3e 75 69 0f be
       0.4401933 -0.03599467 0.2670886 -0.14005072
000040 02 d0 40 be cf e4 b4 3e 2b 3b bf 3e 23 a3 e5 be
       -0.18829349 0.35330817 0.3734983 -0.44851026
000050 db 35 1a 3f 6b b1 e5 be d8 9d e5 be 11 8b 04 bf
       0.60238427 -0.44861922 -0.44846988 -0.517747
000060 85 a4 9f be 6f 35 bc be 25 0b 04 3f 48 fd fa 3e
       -0.31180206 -0.36759517 0.51579505 0.49021363
000070 1a 59 bf 3e f4 03 88 3e c5 9f 41 3e e6 8c 07 be
       0.37372667 0.26565516 0.18908603 -0.13237342
000080 46 3e b0 3e 59 10 e6 be af 07 04 3f 8b a2 d9 bd
       0.3442251 -0.44934347 0.51574224 -0.10626706
000090 52 86 e2 3e 56 40 45 3e 52 3a 73 3e 28 ef 43 3d
       0.44243103 0.19262823 0.23752716 0.0478355
0000a0 55 ae 22 3e 4e 3a d6 3e 88 86 ab 3d 5f fb e1 3e
       0.15886815 0.41841358 0.08375269 0.44137093
0000b0 04 8d 5f be 66 03 01 3f a2 02 61 3f b5 53 bb 3e
       -0.21831137 0.5039581 0.8789464 0.365873
0000c0 5e 42 06 3e 96 c1 a6 3e 40 9a 19 be f4 8c 90 3e
       0.13111255 0.3256957 -0.15000248 0.2823254
0000d0 f6 b8 89 bb c7 8e a2 3e af b7 d9 3e c7 7f 14 3e
       -0.0042029573 0.31749555 0.42522952 0.14501868
0000e0 38 50 1c bf 78 f5 ca 3e 0a e2 a1 3d c5 80 3d 3f
       -0.61059904 0.39640403 0.07904442 0.7402461
0000f0 6e f5 46 be ad 03 bf be 34 67 40 bf 73 af 51 be
       -0.19429561 -0.37307492 -0.75157475 -0.20477085
000100 16 0e d0 3e 27 9b 53 be 5f f8 b1 bd b3 f2 91 be
       0.40635747 -0.20664655 -0.08689951 -0.28505477
000110 bb 60 32 be 7b fe 7c be f0 0c 9c 3e 18 29 5a 3f
       -0.17419712 -0.24706452 0.3047862 0.85218954
000120 0f 39 95 3e 1e 33 a7 3e bd 39 28 3e ec 8c 14 3f
       0.29145095 0.32656187 0.16428275 0.5802753
000130 bd d0 a8 3e 20 67 a9 3e 0f c1 96 be b5 dd 90 3e
       0.32971755 0.3308649 -0.29444167 0.2829415
000140 51 a9 ab 3e af e8 1e bf 67 7d 93 3e 9f ae e4 be
       0.33527616 -0.62073797 0.28806612 -0.44664475
000150 81 a8 1f 3f bc 1f e0 be c0 fe a5 3e 7c 76 12 bf
       0.6236649 -0.4377421 0.3242092 -0.5721204
000160 83 09 96 be ea 27 04 be 3a 69 92 3e cf f8 1a bf
       -0.29304132 -0.12905851 0.28595906 -0.605359
000170 39 10 1a be f0 94 9b be 2b 7b 27 3f 59 1a ca 3e
       -0.15045251 -0.30387068 0.65422314 0.39473227
000180 a9 f0 41 be 74 62 91 be 5f d8 df be 2e ba 9c be
       -0.18939461 -0.28395426 -0.43719766 -0.30610794
000190 e5 08 2e 3f 68 39 d3 3e 1a 55 d0 3e 8c 5f 92 3e
       0.6798232 0.41254735 0.40689927 0.2858852
0001a0 a7 60 a3 bd 6d 3d ca 3e 4c 80 ea bd 37 18 62 3e
       -0.07977419 0.3949999 -0.11450252 0.2207955
0001b0 86 11 ad be 9d e7 03 3f 14 ef 8d 3e 0f 53 1b 3e
       -0.33802432 0.5152529 0.27721465 0.15168403
0001c0 40 28 0e bf f5 8a a1 3e 01 d3 dc 3e ce 39 76 3e
       -0.55530167 0.31551328 0.43129733 0.24045488
0001d0 ac ae af bc 43 e7 a5 3e d6 69 86 3d 55 7c 0f 3f
       -0.021445595 0.32403 0.06563155 0.5604909
0001e0 99 29 ed 3e af 24 e7 3e 2b 6c c7 3e 84 9b f2 3e
       0.463208 0.45145175 0.38949713 0.47384274
0001f0 44 18 8d bc 91 6b 8f 3e 32 8f ae be 5d c0 a8 bd
       -0.017223485 0.28011754 -0.34093624 -0.082398154
000200 13 f5 5a 3d 3d 9e 22 3d e0 5b b7 bd c2 36 3b 3e
       0.053456377 0.03970169 -0.08953071 0.18282607
000210 e8 91 d2 3e d9 9d b5 bd 23 2f a7 be 63 b5 0a 3f
       0.41126943 -0.08867998 -0.3265315 0.54183024
000220 1e cf 68 bd 73 ec 0a 3f 6d 29 bb 3e a8 84 17 3f
       -0.056838147 0.5426704 0.36555043 0.5918679
000230 fe 39 1d be b0 bc ea 3e 78 82 d3 3e d5 b3 01 3f
       -0.15354154 0.45847082 0.41310477 0.50665027
000240 b4 2d ec bd b1 e0 e6 bd 16 16 a7 3e c1 2a ae 3e
       -0.11532155 -0.11273325 0.32634038 0.34016994
000250 0e 2a b0 3e 5e b3 a2 be 51 31 c1 3e 11 38 8c 3e
       0.34407085 -0.3177747 0.37732938 0.27386525
000260 71 f1 3e 3f ca 02 b9 3e fc df c7 be 2d 6c da bd
       0.7458716 0.3613494 -0.39038074 -0.10665164
000270 d9 b6 0f 3e df 92 04 bf 02 d7 09 3f ae 3a 2c be
       0.14034595 -0.5178661 0.538437 -0.1681926
000280 2d cd 97 3e e0 4b 94 bc 1f 8d 87 3a f1 0f 67 3e
       0.29648724 -0.018102586 0.001034174 0.22564675
000290 53 05 d3 3e c4 8a 90 3d fa c0 39 3f cc ef 1b bf
       0.41215 0.070577174 0.72560084 -0.60912776
0002a0 df a1 13 3f 47 93 f4 3e 2c f9 14 3f 01 45 00 3f
       0.5766887 0.47768614 0.58192706 0.5010529
0002b0 31 69 76 3e 2e 11 d7 be c6 71 1e 3f 3d 8b 55 be
       0.24063565 -0.42005295 0.61892354 -0.20853896
0002c0 26 4a a9 3e 70 b0 a8 be 3d cc 7e 3e 76 75 1c bf
       0.33064383 -0.3294711 0.24882598 -0.6111673
0002d0 61 ed 09 3f 12 06 b4 3e 09 c0 ac 3d 2a 2b c6 3e
       0.53877836 0.3516088 0.08435065 0.38704807
0002e0 bc 82 cb 3e a9 92 06 be 27 c4 b0 3e 64 9d 69 3e
       0.3974818 -0.13141884 0.34524652 0.22813946
0002f0 4d 3d 09 3f 38 b1 8c 3e 54 ba e8 3e da 55 03 3e
       0.5360916 0.27478957 0.45454657 0.12825719
000300 7f 6a ad be d1 37 b6 be f6 7c 72 3d 3f 77 dc 3e
       -0.33870313 -0.3558946 0.059201203 0.43059728
000310 8f 6d 52 3e 52 69 81 be 00 18 b8 3e a9 24 1f 3f
       0.20549606 -0.25275666 0.3595581 0.62165314
000320 32 32 01 3f 11 27 17 3f ef 8e fd be 58 57 12 3f
       0.50467217 0.59043986 -0.49523112 0.57164526
000330 d0 98 6f be c7 fe 93 3e 7d 6d a3 3e a4 9a cc 3e
       -0.23398137 0.28905317 0.3191947 0.3996173
000340 82 d4 b3 be da 2c 79 bd 86 b4 cc 3e 1f b4 34 3f
       -0.35123068 -0.06083379 0.39981478 0.7058734
000350 7e e0 ba be 3f c4 0c 3f 4a c5 bf 3e 91 50 04 3f
       -0.364994 0.5498695 0.37455207 0.51685435
000360 16 e2 1c 3f 78 66 35 3e 2e 7f 8a be 36 65 42 be
       0.6128248 0.1771487 -0.27050155 -0.18983921
000370 d3 7f d3 be fc b1 fe 3e b4 b8 5b be ff af 96 be
       -0.4130846 0.49745166 -0.21457177 -0.2943115
000380 61 ed b6 be 20 7e 70 be de b7 bd be 77 4d 89 3e
       -0.3572798 -0.23485613 -0.37054342 0.26816913
000390 3d 3c fc be 74 64 5a 3e 02 0c d2 bd 1f c1 a8 3e
       -0.49264708 0.21327382 -0.102561966 0.3295984
0003a0 1a a7 be be 53 c6 01 3f 64 fb 9e be 07 77 36 bf
       -0.37236863 0.50693244 -0.3105117 -0.7127537
0003b0 16 70 12 3f 5d 84 3e bf 57 ae 26 bf 24 e5 24 bd
       0.5720228 -0.7442072 -0.6510977 -0.040257588
0003c0 1f 94 f5 3d 6d a3 7b be 62 00 fe bd 86 be 82 be
       0.119911425 -0.2457406 -0.12402417 -0.25535983
0003d0 4f c8 b2 3d 2a f0 8c bd b0 0e a2 3e 94 0e 46 3e
       0.08729612 -0.06881745 0.3165183 0.19341499
0003e0 3e 12 c8 3e 8e 70 a5 be 29 c1 35 bd b2 fe c4 3e
       0.39076418 -0.32312435 -0.044373665 0.38475567
0003f0 ad 17 b4 bd bd 4f a2 be 70 91 4d be 35 78 0e be
       -0.08793578 -0.3170146 -0.20075011 -0.13913043

l1.bias f4 [8]
000000 bd 9b e5 3e 9a 56 87 3f fa f9 c7 3e 9a 5d 1c 3f
       0.4484538 1.0573304 0.39057904 0.61080325
000010 23 6e 3e 3f 00 6a 87 3f 34 6f 83 3e 41 fa 02 3f
       0.74386805 1.0579224 0.2567078 0.5116311

l2.weight f4 [8, 8]
000000 5d 67 98 be 11 e1 85 3e 7d c9 40 be f0 47 93 be
       -0.2976636 0.26148275 -0.18826862 -0.2876582
000010 64 7e 89 bd 8b 99 63 be d8 b8 5f be be c1 96 be
       -0.0671356 -0.2222654 -0.21847856 -0.2944469
000020 f2 c4 34 bf ba ce 57 3f 38 5d 5b 3f 4e 5b b6 3c
       -0.70613015 0.84299815 0.85689116 0.022260334
000030 53 40 ca be 4b 59 9e 3f f9 c1 6b bf b1 e9 6c 3f
       -0.395022 1.2371 -0.92092854 0.92544085
000040 85 41 46 3f 25 18 b6 3f 58 8c ef be 47 13 a0 bd
       0.77443725 1.4226118 -0.4678676 -0.07816177
000050 41 c5 76 3f 6d 12 76 3f 5f 06 55 3d 51 4d 62 bf
       0.96394736 0.96121866 0.05200803 -0.88399225
000060 f4 ee 1a bf 22 0f 07 bf b1 39 7a 3f b4 39 0d 3f
       -0.60520864 -0.52757466 0.9774428 0.55166173
000070 20 dd 34 bf 07 7f 57 3e 57 94 35 3d 38 e3 7d 3f
       -0.7064991 0.21044551 0.04433092 0.99174833
000080 22 8f 53 3f 37 ae d3 be e3 2a c5 3d b5 5d 8f 3f
       0.8264028 -0.41343853 0.096273206 1.1200472
000090 f1 a1 5f bf 63 c3 35 be 96 93 29 3f 0d a4 bd 3e
       -0.8735648 -0.17750315 0.66240823 0.37039223
0000a0 00 10 63 bf 92 3d e3 3d 29 62 9d 3c 08 77 b5 3f
       -0.8869629 0.11095728 0.019211845 1.417695
0000b0 e5 e8 4c bf cf 2b 17 3f 38 00 33 bd ed 81 6b be
       -0.8004287 0.5905122 -0.04370138 -0.22998782
0000c0 c2 41 58 3e 28 4a 23 bf 8a 13 9a 3f 58 0e b4 3d
       0.21118835 -0.6378503 1.2037213 0.08791798
0000d0 90 86 97 3c ee 53 42 3e c0 f1 93 3e e4 82 4f 3f
       0.018496782 0.18977329 0.28895378 0.810591
0000e0 51 64 9e 3f 2a 7e 2e 3f 9f 6e e2 bd 54 28 35 3e
       1.2374364 0.6816126 -0.110562555 0.17691165
0000f0 26 ef 8f 3f 88 4f 34 bf 44 2a 02 3f c7 28 1c 3f
       1.1244857 -0.70433855 0.5084574 0.6099972

l2.bias f4 [8]
000000 7c 85 29 be 3c 5e c8 3e df ab 53 3f 69 99 81 3e
       -0.16554826 0.39134395 0.8268413 0.25312355
000010 28 7a 32 be 90 6a 1a 3f f9 2c de 3d 9f 80 c2 3d
       -0.17429411 0.6031885 0.108484216 0.09497189

l3.weight f4 [7, 8]
000000 b8 be 53 bd b8 c0 93 3e 3b 43 81 bf 57 eb 11 3e
       -0.051695555 0.2885797 -1.0098642 0.14249931
000010 53 70 29 bf d2 28 a5 bf 21 77 1f 3f d2 d5 25 bf
       -0.6618702 -1.2903082 0.6229115 -0.6477939
000020 00 92 90 bb 8f 4b 54 bf 30 d8 78 bf 5f 47 d8 bd
       -0.004411936 -0.82927793 -0.97204876 -0.10560488
000030 7e cb 0a 3f 1f 58 96 bf 92 ef 4b 3e 22 28 ea 3e
       0.54216754 -1.1745642 0.19915608 0.45733744
000040 78 42 08 3e 23 2a 26 3f 94 e0 a9 3e b7 d1 63 bf
       0.13306606 0.64908046 0.33179152 -0.88991874
000050 46 7c 8b bf 92 a1 ed bf 1a 95 05 bf 29 28 a0 be
       -1.08973 -1.8564932 -0.52180636 -0.3128064
000060 c0 63 3e 3c d8 bb 0a 3f 69 c0 7d 3d 94 a7 8c be
       0.011620462 0.54192877 0.061951075 -0.27471602
000070 40 5e 91 bf 75 a5 6d 3f e3 f4 c0 bf a3 90 c8 bf
       -1.1356888 0.9283059 -1.5074733 -1.566914
000080 b0 47 d9 bc 38 4c 99 bf 90 3a 3b be 6c 25 48 bf
       -0.026523441 -1.1976385 -0.18284059 -0.781821
000090 cc 8c 23 3f 67 6f 1b 3e 4c 88 67 bf 8d 0c 3c 3e
       0.63886714 0.15179215 -0.9044235 0.18364163
0000a0 88 de d5 3d e4 f7 00 3e ab f2 64 bf f6 cf bb bd
       0.10442835 0.12594563 -0.8943278 -0.09170525
0000b0 70 47 00 3f eb ae 00 3f 42 fa bb bd 86 33 97 bf
       0.50109005 0.50266904 -0.09178592 -1.1812599
0000c0 28 4c 57 3d f1 d3 d1 bf 8c d9 1f 3f c7 e8 22 bf
       0.052562863 -1.6392804 0.62441325 -0.6363644
0000d0 f9 53 8e bf 69 37 b4 bf 09 59 5b bf 91 ae 0a 3f
       -1.1119376 -1.407941 -0.8568273 0.5417262

l3.bias f4 [7]
000000 06 a0 81 3e a9 d7 1a be 7f 3a a8 3e 62 0d e9 3e
       0.253174 -0.1512133 0.3285713 0.45518023
000010 c0 30 d8 bd 2f ba 87 3d a3 bf c2 3e
       -0.10556173 0.066273086 0.38036832
